LIM/neural_networks/final_models_trained/model_5111061fnp.pt (torch, 530567 bytes, 18 tensors)

fc1.weight f4 [128, 180]
-0.07126832 -0.035196222 -0.018950328 0.017373534 0.017020404 -0.036374733 -0.010164685 0.026556058
-0.0004294758 0.026063686 -0.029931882 -0.021454649 -0.04420217 -0.013949435 0.015138349 0.0024312378
0.018662885 0.005676094 0.025785673 0.01675463 -0.04637939 -0.007308078 -0.036013033 0.03953525
0.008325334 -0.0024854462 0.032242894 0.0049835946 -0.045815993 -0.012790563 0.04537259 -0.035535567
-0.01958661 0.016409608 0.014131772 0.06771309 -0.025691986 -0.033149276 0.012534863 -0.041987337
0.009041793 0.022913681 -0.03158268 -0.022837192 -0.05382924 -0.043793242 -0.030726433 -0.051888913
-0.010068071 -0.039017417 -0.042104293 0.017161015 0.028462136 -0.02517004 0.0051729823 0.043828037
0.0054671667 -0.02005738 0.07219974 -0.02978878 -0.007532881 0.041863754 -0.0075160954 -0.015051864
-0.009710976 0.034228124 0.022621347 0.0404429 -0.029507015 0.042894576 -0.006362801 -0.012367942
-0.008424532 0.009938896 0.06718567 0.06688664 -0.0019112292 0.071966775 -0.004337397 0.010976699
-0.010998393 -0.017263828 -0.01179854 0.051713243 -0.07194239 -0.04330012 -0.0054269796 0.011135061
-0.0021838117 0.05121755 -0.027624987 0.027809393 0.02559756 -0.012998184 -0.034690563 0.03014819
0.02193232 -0.047061708 0.047550377 -0.006621188 0.034113593 0.053062733 0.02561389 -0.06973353
-0.02556822 -0.0661232 -0.01639059 -0.09904486 0.024883002 -0.0010556009 0.05192703 -0.023538347
-0.06409403 -0.013578525 -0.041804533 0.096377246 -0.039562277 -0.04302446 -0.008446737 0.0047943536
-0.039484624 0.07895693 -0.0062188385 -0.022077372 -0.014257299 -0.08525612 -0.060401816 0.07474612
-0.052145567 -0.0066767107 -0.037291996 -0.1440478 -0.0010951152 0.07942212 -0.034316935 0.034180775
0.06279908 0.102719754 -0.04759314 0.05485713 0.077330865 -0.030545488 0.061922543 0.06607313
0.096693054 0.00012929463 0.05165568 -0.06633724 0.057865396 -0.01730371 0.06457833 0.1013812
-0.047899283 0.10572729 0.056565512 -0.007236159 0.10945876 -0.12989649 -0.011048879 0.020363735
-0.03912613 0.17448352 0.0048208963 -0.17581856 -0.05522727 -0.10165937 -0.1376398 -0.09400483
0.12716253 -0.16522253 0.0036620984 0.0061245994 0.13666616 -0.00070537184 -0.03645909 -0.106708415
-0.01929754 0.20522392 -0.3328478 0.030051073 0.0052108546 0.0071400707 0.040742327 0.03216445
-0.01250002 0.0043777274 -0.01990266 -0.007952137 -0.014842152 -0.04396611 0.005307923 0.024262985
-0.040030774 0.00586942 0.006383182 -0.022764457 -0.026104998 -0.03101027 -0.032034125 -0.009438216
-0.05748469 0.045591537 -0.0064287926 -0.010414935 -0.010991272 -0.01640369 -0.032079056 -0.027460346
0.024300525 -0.022873383 0.04086826 0.050897002 -0.064138286 -0.029073512 0.025499035 -0.02054423
0.0076869247 0.022953892 0.03006834 0.036891684 -0.0030626429 -0.05961332 0.044964984 -0.012537195
-0.00057028636 0.016030407 0.011749893 0.040091533 0.04920196 0.011132575 -0.050379187 -0.074953645
0.03310914 0.020119818 -0.010037533 0.0044817342 0.034285896 0.035807144 -0.028673034 0.014321509
-0.022814525 -0.06704127 0.0060565835 -0.044685263 -0.017046757 -0.06682103 0.048721384 0.007192569
-0.017300686 -0.0057150647 -0.016315294 0.016241938 -0.026526177 -0.05074546 -0.007628986 0.06952593
00000000: 20f5 91bd ea29 10bd b83d 9bbc f152 8e3c
00000010: 606e 8b3c acfd 14bd c789 26bc 178c d93c
00000020: 442b e1b9 8383 d53c b533 f5bc a9c1 afbc
00000030: 560d 35bd 2c8c 64bc d606 783c 6755 1f3b
00000040: e8e2 983c 87fe b93b 7a3c d33c 0141 893c
00000050: 51f8 3dbd 9a78 efbb 6782 13bd b7ef 213d
00000060: fb66 083c dee2 22bb 2011 043d 6c4d a33b
00000070: 8da9 3bbd 828f 51bc 9cd8 393d be8d 11bd
00000080: 1974 a0bc 716d 863c f388 673c 29ad 8a3d
00000090: 0078 d2bc 89c7 07bd 075f 4d3c eafa 2bbd
000000a0: 0724 143c 79b5 bb3c d75c 01bd 1015 bbbc
000000b0: 0d7c 5cbd 8b60 33bd 00b6 fbbc 7889 54bd
000000c0: 8df4 24bc bad0 1fbd 8d75 2cbd 4295 8c3c
000000d0: 6d29 e93c 6631 cebc 1f82 a93b 0785 333d
000000e0: eb25 b33b 604f a4bc 75dd 933d 9907 f4bc
000000f0: 63d6 f6bb 5479 2b3d 9449 f6bb 189c 76bc
00000100: c91a 1fbc ca32 0c3d 6750 b93c 74a7 253d
00000110: b2b8 f1bc 39b2 2f3d 0b7f d0bb e9a2 4abc
00000120: 0c07 0abc c0d6 223c a498 893d ddfb 883d
00000130: 3682 faba 5163 933d b920 8ebb 9dd7 333c
00000140: 9b32 34bc df6c 8dbc aa4e 41bc 44d1 533d
00000150: 8856 93bd 775b 31bd ced4 b1bb d56f 363c
00000160: 481e 0fbb 7ec9 513d cc4d e2bc 86d0 e33c
00000170: f9b1 d13c 56f6 54bc b117 0ebd 56f9 f63c
00000180: 69ab b33c c7c3 40bd 2fc4 423d 8df6 d8bb
00000190: b2ba 0b3d 4f58 593d 38d4 d13c 74d0 8ebd
000001a0: 7274 d1bc 9a6b 87bd 8f45 86bc 08d8 cabd
000001b0: 70d7 cb3c 175c 8aba 70b1 543d 7ed3 c0bc
000001c0: bb43 83bd 7678 5ebc 3b3b 2bbd 6f61 c53d
000001d0: 0e0c 22bd 6b3a 30bd 2f64 0abc f419 9d3b
000001e0: a1ba 21bd 2cb4 a13d 66c7 cbbb 9bdb b4bc
000001f0: 7297 69bc c39a aebd e567 77bd 7e14 993d
00000200: 9796 55bd 4fc8 dabb 7ebf 18bd 4481 13be
00000210: f889 8fba 10a8 a23d ea8f 0cbd 2401 0c3d
00000220: ce9c 803d bc5e d23d 06f1 42bd dfb1 603d
00000230: a55f 9e3d 883a fabc 7ea2 7d3d 5951 873d
00000240: 0207 c63d 4393 0739 e894 533d d2db 87bd
00000250: 4404 6d3d 83c0 8dbc a541 843d f2a0 cf3d
00000260: 0a32 44bd 8d87 d83d 3db1 673d 4d1d edbb
00000270: ea2b e03d 9603 05be 5b06 35bc d9d1 a63c
00000280: b942 20bd cfab 323e 9cf8 9d3b c809 34be
00000290: fd35 62bd ca32 d0bd 73f1 0cbe 9b85 c0bd
000002a0: e536 023e 1830 29be d1ff 6f3b ddb0 c83b
000002b0: 37f2 0b3e b4e8 38ba 2056 15bd f189 dabd
000002c0: e015 9ebc 3826 523e 076b aabe ab2d f63c
000002d0: d1bf aa3b 41f7 e93b 6de1 263d dfbe 033d
000002e0: e2cc 4cbc 0a73 8f3b e70a a3bc ae49 02bc
000002f0: 7f2c 73bc cf15 34bd 16ee ad3b 2bc3 c63c
00000300: 4ff7 23bd 4354 c03b 032a d13b 877c babc
00000310: 26da d5bc 4009 febc 3736 03bd bfa2 1abc
00000320: 1175 6bbd 31be 3a3d 9fa8 d2bb 67a3 2abc
00000330: bc14 34bc 0861 86bc 5465 03bd 85f4 e0bc
00000340: e511 c73c f660 bbbc 7a65 273d 6079 503d
00000350: ef5a 83bd 932b eebc 5ae3 d03c 5f4c a8bc
00000360: 99e2 fb3b cd09 bc3c e151 f63c bc1b 173d
00000370: 9fb6 48bb 192d 74bd 342d 383d cf68 4dbc
00000380: 457f 15ba 3352 833c a082 403c 0537 243d
00000390: ff87 493d 6765 363c 685a 4ebd 4c81 99bd
000003a0: 739d 073d 51d2 a43c 7774 24bc 83db 923b
000003b0: 5e6f 0c3d 83aa 123d b6e3 eabc c3a4 6a3c
000003c0: 87e5 babc ef4c 89bd 4e76 c63b e507 37bd
000003d0: a4a5 8bbc 77d9 88bd 1390 473d a4af eb3b
000003e0: 2bba 8dbc 7045 bbbb a7a7 85bc d00d 853c
000003f0: 6d4d d9bc 79da 4fbd 93fc f9bb 9c63 8e3d

fc1.bias f4 [128]
0.39444688 0.52548444 0.44930166 0.46707767 0.06871445 0.44820464 0.37621158 0.42107877
0.37012318 0.45936644 0.56797457 0.14372599 0.04538347 0.37461317 0.059684347 0.4295926
0.17480427 -0.0022895487 0.3525331 0.1679714 0.5199384 0.120694935 0.52133524 0.1261352
0.29444605 0.281856 0.5366535 0.3337053 0.34875372 0.4133769 0.42320472 0.5270092
0.22257642 0.39378268 0.4978745 0.48758 0.48863372 0.059431106 0.5380994 0.35590234
0.22235557 0.50725687 0.47787562 0.060796086 0.3691481 0.47922266 0.37731385 0.331628
0.414561 0.42764547 0.099137954 0.51183635 0.24547017 0.4880823 0.44384992 0.3241924
0.34836802 0.48589274 0.22988409 0.030619347 0.3474933 0.4505042 0.43694043 0.37406957
0.54597 0.5023105 0.53971994 0.4975402 0.49208105 0.43734425 0.5477864 0.3626195
0.4206321 0.352708 0.35197106 0.4100251 0.21693903 0.36552003 0.41380817 0.10280949
0.3426613 0.49837402 0.4912488 0.30172276 0.11600096 0.26762524 0.3292761 0.41980845
0.5465663 0.402543 0.41196924 0.24940287 0.22171591 0.0136038335 0.49385744 0.13348836
0.354519 0.44803444 0.32785842 0.54440624 0.34572187 0.46520355 0.41139787 0.3313056
0.03532297 0.4823752 0.42747948 0.5064135 0.52602136 0.40819228 0.36152223 0.48826125
0.31620082 0.3355806 0.32150853 0.06583729 0.4756926 0.42300513 0.41306347 0.501891
0.48937702 0.4632097 0.31711885 0.26632816 0.50942266 0.18356836 0.2843159 0.5228087
00000000: f1f4 c93e 2686 063f de0a e63e ce24 ef3e
00000010: 29ba 8c3d 147b e53e ce9e c03e a397 d73e
00000020: c980 bd3e 1432 eb3e c866 113f e82c 133e
00000030: 04e4 393d 4ccd bf3e 9377 743d 90f3 db3e
00000040: e4ff 323e 410c 16bb 387f b43e b200 2c3e
00000050: af1a 053f e82e f73d 3a76 053f 9629 013e
00000060: a2c1 963e 6e4f 903e 2062 093f 6cdb aa3e
00000070: d98f b23e 23a6 d33e 4aae d83e 13ea 063f
00000080: 13eb 633e e29d c93e 68e9 fe3e 16a4 f93e
00000090: 332e fa3e 086e 733d e2c0 093f d538 b63e
000000a0: 2eb1 633e 96db 013f 1dac f43e 5105 793d
000000b0: fb00 bd3e ac5c f53e 482f c13e 25cb a93e
000000c0: 5741 d43e 59f4 da3e d708 cb3d b507 033f
000000d0: 885c 7b3e ece5 f93e 4c40 e33e 8cfc a53e
000000e0: 4b5d b23e efc6 f83e bc66 6b3e 6dd5 fa3c
000000f0: a4ea b13e 7da8 e63e a8b6 df3e 0c86 bf3e
00000100: b1c4 0b3f 6c97 003f 162b 0a3f 97bd fe3e
00000110: 0cf2 fb3e 96eb df3e bb3b 0c3f 43a9 b93e
00000120: 175d d73e 2596 b43e 8d35 b43e cfee d13e
00000130: 4425 5e3e 7125 bb3e aade d33e c88d d23d
00000140: 4d71 af3e e12a ff3e f684 fb3e 687b 9a3e
00000150: e991 ed3d 2d06 893e e196 a83e 22f1 d63e
00000160: c5eb 0b3f 1e1a ce3e a2ed d23e 7763 7f3e
00000170: 7f09 633e 9de2 5e3c e2da fc3e 2cb1 083e
00000180: 8483 b53e c564 e53e 0fdd a73e 355e 0b3f
00000190: 7502 b13e 292f ee3e bea2 d23e e3a0 a93e
000001a0: d2ae 103d e2f9 f63e 97de da3e 51a4 013f
000001b0: 56a9 063f 94fe d03e 7119 b93e 61fd f93e
000001c0: 13e5 a13e 38d1 ab3e c49c a43e b3d5 863d
000001d0: fb8d f33e 2194 d83e 0e7d d33e ee7b 003f
000001e0: a08f fa3e d229 ed3e 675d a23e 2a5c 883e
000001f0: 8669 023f 58f9 3b3e db91 913e cad6 053f

fc2.weight f4 [128, 128]
-0.076445185 -0.14118473 -0.06128078 0.019730702 0.10191359 0.009885106 0.050376642 -0.013824095
-0.06514048 0.12197915 -0.044546362 -0.04354829 0.062350813 0.024010208 0.15295324 0.094802774
0.014433266 -0.118777215 0.12935682 0.06972117 -0.15743692 0.06051451 -0.14146653 -0.110165276
0.022638408 0.037107866 0.0538315 0.00883545 0.17195888 -0.04403712 -0.0010064972 0.12021344
0.11327318 -0.08637676 0.25521937 0.11330575 -0.0060765524 -0.087146066 0.06995977 0.11767933
-0.09673716 -0.055764206 0.008256307 -0.016532939 0.020520138 0.0020537188 -0.09288303 0.030423384
0.042523414 0.14107127 -0.0048715607 -0.027903117 0.022524914 -0.07761673 0.101874955 -0.046002112
0.07797434 0.02096965 0.019073848 0.06424256 -0.06907596 0.0650984 0.06769358 -0.0033845776
0.23604523 0.029960768 0.08513704 0.2635398 -0.15351802 0.20865807 0.07865083 -0.07587689
-0.020859608 -0.016659359 0.015759721 -0.103328265 0.03880465 0.15787508 -0.040881816 0.07238019
-0.059328075 0.07382502 -0.11802066 0.05282361 0.14495318 0.070573986 0.12314086 0.050493192
0.0362781 -0.0031573419 -0.07557123 0.05207917 0.10013776 0.090332486 -0.02242723 0.030125942
0.07311034 0.19009966 0.061728567 0.10074689 0.051015828 0.0694812 0.051794674 -0.06655918
0.059509855 -0.03495462 -0.19852172 0.06455783 0.24090503 0.06247881 0.053911634 0.091065146
-0.018798186 0.02475443 0.03714396 0.0067169857 -0.028720483 -0.020131042 -0.15089533 0.047517605
0.009118149 0.08849738 0.06853207 0.029274387 -0.039081164 0.09201324 -0.00478166 0.024979662
0.13877344 0.0100090625 0.08254725 0.026487676 0.013609435 0.07752717 -0.011271498 0.039271485
0.09287048 0.13761641 0.07944745 0.11577972 -0.0115509825 -0.11514968 0.05249027 -0.070156656
0.01141432 0.06550102 0.015973955 0.07192962 0.010512685 0.11681764 -0.009835252 0.06606679
-0.0054599186 0.18114586 -0.14065263 0.22125617 -0.03507149 -0.046027694 0.00029366757 0.07726837
-0.051868863 -0.10439179 0.14777832 -0.12660286 0.23507327 0.04069679 -0.036311224 -0.1325516
-0.060364317 0.21961515 0.09945059 -0.14102402 0.120258756 0.07155369 -0.08088477 0.13048685
0.032397553 0.1510872 0.106861 -0.09335552 -0.024029708 0.06041126 -0.04881986 -0.047668274
0.047312744 0.04636846 -0.010710306 -0.04771259 -0.004598129 0.056365553 -0.058743738 -0.0068039233
-0.061900035 -0.1356503 0.035685282 -0.007274499 -0.08190537 0.18354948 0.06644983 0.078714915
0.08027516 0.031489633 0.03668792 0.07928515 0.10515762 -0.081857346 0.1232567 -0.0018431398
0.03675131 0.068994865 0.07067433 -0.071037345 0.05032439 0.02890152 -0.021040088 0.011364876
0.21969025 0.1500924 -0.014857952 0.017247617 0.004596557 0.22035691 -0.041677635 -0.013759396
0.06078772 0.020702047 -0.03741888 -0.020972965 -0.027884962 0.14149216 -0.00092589617 0.0067264824
0.025892248 -0.09344624 0.0884138 -0.04705751 0.18750146 -0.031510957 0.06929652 0.19148146
0.12176884 0.029637905 0.14210859 -0.04249099 0.08748464 0.018759383 0.092049524 0.039384514
0.11715341 -0.20060739 -0.042855896 0.06322503 0.046970207 0.01671489 -0.037674014 0.11065055
00000000: 4b8f 9cbd bb92 10be 8e01 7bbd 48a2 a13c
00000010: 13b8 d03d 24f5 213c bd57 4e3d 757e 62bc
00000020: 5f68 85bd 34d0 f93d 3f76 36bd b15f 32bd
00000030: 9163 7f3d 0eb1 c43c c69f 1c3e f527 c23d
00000040: 8179 6c3c 7841 f3bd 1d76 043e f9c9 8e3d
00000050: 2537 21be 10de 773d 9adc 10be 559e e1bd
00000060: 2f74 b93c 6bfe 173d 6b7e 5c3d 90c2 103c
00000070: fd15 303e 4460 34bd 71ec 83ba 7732 f63d
00000080: c5fb e73d 4ce6 b0bd 1dac 823e d80c e83d
00000090: d11d c7bb a379 b2bd 1147 8f3d dc01 f13d
000000a0: 221e c6bd 0269 64bd 7645 073c 1670 87bc
000000b0: d919 a83c af97 063b 7539 bebd 763a f93c
000000c0: 082d 2e3d fd74 103e 9da1 9fbb 1495 e4bc
000000d0: 2b86 b83c 85f5 9ebd d1a3 d03d b66c 3cbd
000000e0: 03b1 9f3d 8bc8 ab3c c240 9c3c 9a91 833d
000000f0: b277 8dbd 4f52 853d efa2 8a3d cacf 5dbb
00000100: d7b5 713e 4970 f53c 545c ae3d b0ee 863e
00000110: d433 1dbe 76aa 553e b013 a13d 5865 9bbd
00000120: c5e1 aabc 3579 88bc 881a 813c c59d d3bd
00000130: a0f1 1e3d 01aa 213e b173 27bd 113c 943d
00000140: ff01 73bd 9231 973d d1b4 f1bd 925d 583d
00000150: 9b6e 143e 1889 903d 4631 fc3d f3d1 4e3d
00000160: 5898 143d 68eb 4ebb 17c5 9abd f850 553d
00000170: 0715 cd3d 3d00 b93d 4fb9 b7bc aeca f63c
00000180: e0ba 953d 7ca9 423e 18d7 7c3d 6354 ce3d
00000190: f9f5 503d 294c 8e3d a726 543d 2e50 88bd
000001a0: 9bc0 733d 932c 0fbd 4749 4bbe e536 843d
000001b0: cfaf 763e c8e9 7f3d 72d2 5c3d 5d80 ba3d
000001c0: a7fe 99bc cdc9 ca3c 4424 183d 291a dc3b
000001d0: 3847 ebbc dbe9 a4bc 4e84 1abe d2a1 423d
000001e0: 4a64 153c 1d3e b53d 8b5a 8c3d d7d0 ef3c
000001f0: 9213 20bd 7071 bc3d 79af 9cbb 26a2 cc3c
00000200: a01a 0e3e 0dfd 233c 880e a93d affc d83c
00000210: 1cfa 5e3c 91c6 9e3d 17ac 38bc 23db 203d
00000220: e132 be3d 51eb 0c3e 58b5 a23d eb1d ed3d
00000230: 5540 3dbc 98d3 ebbd 0a00 573d 4bae 8fbd
00000240: 2103 3b3c 6625 863d d0db 823c d64f 933d
00000250: 663d 2c3c 163e ef3d 0924 21bc 064e 873d
00000260: 1ee9 b2bb 4d7e 393e 3e07 10be fa90 623e
00000270: 1fa7 0fbd 8987 3cbd 65f7 9939 e13e 9e3d
00000280: 7274 54bd 5dcb d5bd 3353 173e 2ea4 01be
00000290: 0cb7 703e adb1 263d 14bb 14bd 9bbb 07be
000002a0: 9340 77bd cbe2 603e c0ac cb3d 9a68 10be
000002b0: 394a f63d be8a 923d eaa6 a5bd 589e 053e
000002c0: 4cb3 043d 9ab6 1a3e f1d9 da3d 2e31 bfbd
000002d0: f3d9 c4bc cc71 773d 55f7 47bd cf3f 43bd
000002e0: 02cb 413d dbec 3d3d 487a 2fbc 476e 43bd
000002f0: e7ab 96bb 91df 663d 469d 70bd 72f3 debb
00000300: e48a 7dbd eae7 0abe bb2a 123d ec5e eebb
00000310: 01be a7bd 65f4 3b3e d916 883d 4935 a13d
00000320: 4e67 a43d 46fb 003d 1346 163d 4160 a23d
00000330: e15c d73d d3a4 a7bd 026e fc3d 8295 f1ba
00000340: 8b88 163d 2e4d 8d3d b4bd 903d 077c 91bd
00000350: f320 4e3d e1c2 ec3c 435c acbc bf33 3a3c
00000360: 7bf6 603e d2b1 193e c46e 73bc e04a 8d3c
00000370: b79e 963b 3ea5 613e 2bb6 2abd 176f 61bc
00000380: 8bfc 783d 5797 a93c 8a44 19bd 7fcf abbc
00000390: 016f e4bc 52e3 103e d7b7 72ba d369 dc3b
000003a0: fb1b d43c be60 bfbd 4b12 b53d 60bf 40bd
000003b0: 6200 403e a211 01bd 55eb 8d3d b713 443e
000003c0: f161 f93d 31cb f23c ea84 113e 080b 2ebd
000003d0: 262b b33d 47ad 993c 7684 bc3d a851 213d
000003e0: 21ee ef3d 066c 4dbe aa89 2fbd 207c 813d
000003f0: d563 403d aaed 883c 1150 1abd c19c e23d

fc2.bias f4 [128]
0.13823868 -0.010454602 -0.010950785 0.12636082 0.11710029 0.10079625 0.056665946 -0.021000408
-0.0036100722 0.13311952 0.108677395 0.00068128406 0.11951641 -0.024621641 0.11336902 0.006662124
0.06541353 0.063317366 0.12821521 -0.011925758 0.020924518 0.006466128 -0.04024125 0.014182986
-0.038740285 0.041619536 0.041600082 -0.079751395 0.06679542 0.0028286066 0.008663819 0.023944685
-0.05376076 0.040109526 0.0012474492 0.014417705 0.039849285 -0.0023164072 -0.0049375384 0.047016352
0.09539833 -0.033712994 0.051805083 -0.00030933513 0.1359603 -0.023634207 0.031669267 0.10315188
-0.02813131 0.071289614 -0.03241038 0.10323016 0.079528 0.051504295 0.0063997023 0.03171167
-0.030840212 0.08567525 0.12539722 0.020523576 0.0010407403 0.1325868 0.015278229 0.005830181
0.103126526 0.084370025 0.07781253 0.039972976 -0.006055923 -0.018440606 -0.036091097 0.027293056
0.12081952 -0.035116687 -0.003118776 0.01143127 -0.012488627 -0.0070859296 0.10409481 0.050073557
0.10087072 -0.03746326 0.028565789 0.036167283 0.12462621 0.105487816 0.11810375 0.011869972
0.089623824 -0.054806124 0.08453795 0.09763502 -0.025581874 0.025230847 0.079721 -0.026791291
0.07820928 0.011952729 0.11132054 0.024858853 0.021293564 0.030863723 0.028193273 0.09801816
0.05727658 -0.0031226939 -0.027702395 0.05310212 -0.06347749 -0.010411561 0.09811533 0.07519958
0.060608715 0.12205888 0.067763455 0.06631346 -0.042802677 0.011698067 0.05025801 0.056092396
0.078472175 0.086348355 -0.016434552 0.019148484 0.11071624 0.13880129 0.052917972 0.09561389
00000000: 718e 0d3e c749 2bbc ec6a 33bc bb64 013e
00000010: 47d2 ef3d 446e ce3d 8d1a 683d 0c09 acbc
00000020: f696 6cbb 7c50 083e 4192 de3d 3398 323a
00000030: 05c5 f43d 53b3 c9bc 042e e83d f24d da3b
00000040: 87f7 853d 89ac 813d d94a 033e 4164 43bc
00000050: e569 ab3c d0e1 d33b 02d4 24bd c15f 683c
00000060: 22ae 1ebd 3f79 2a3d d964 2a3d b354 a3bd
00000070: 0acc 883d 2560 393b b1f2 0d3c a527 c43c
00000080: 3e34 5cbd e349 243d 7381 a33a 3d38 6c3c
00000090: 0139 233d ddce 17bb 13cb a1bb 3894 403d
000000a0: 3360 c33d a316 0abd 9131 543d 422e a2b9
000000b0: 2d39 0b3e 869c c1bc a2b7 013d 4b41 d33d
000000c0: a273 e6bc 4a00 923d bfc0 04bd 566a d33d
000000d0: 93df a23d 2bf6 523d 98b4 d13b 19e4 013d
000000e0: 9da4 fcbc 8176 af3d 2168 003e 0f21 a83c
000000f0: 7369 883a d6c4 073e 8951 7a3c 1a0b bf3b
00000100: 0034 d33d 31ca ac3d 2d5c 9f3d b4ba 233d
00000110: c470 c6bb c110 97bc 42d4 13bd b095 df3c
00000120: 3970 f73d 84d6 0fbd 6164 4cbb 394a 3b3c
00000130: 199d 4cbc 1631 e8bb a92f d53d ee19 4d3d
00000140: 4f95 ce3d 1373 19bd cd02 ea3c 2524 143d
00000150: 073c ff3d ff09 d83d 61e0 f13d 457a 423c
00000160: b28c b73d 637c 60bd 3c22 ad3d dff4 c73d
00000170: 1491 d1bc ecb0 ce3c c344 a33d 6979 dbbc
00000180: 302c a03d 61d5 433c 06fc e33d cba4 cb3c
00000190: d76f ae3c ebd5 fc3c 94f5 e63c bfbd c83d
000001a0: d99a 6a3d 1ca6 4cbb 22f0 e2bc 9c81 593d
000001b0: 7c00 82bd 4095 2abc b1f0 c83d 3d02 9a3d
000001c0: d840 783d 02fa f93d 91c7 8a3d 5acf 873d
000001d0: dc51 2fbd 40a9 3f3c 58db 4d3d 24c1 653d
000001e0: 05b6 a03d 68d7 b03d c1a1 86bc 48dd 9c3c
000001f0: 32bf e23d ed21 0e3e 84c0 583d 37d1 c33d

fc3.weight f4 [30, 128]
0.09936483 -0.09990182 -0.020375108 0.056308597 0.012683553 -0.02529882 -0.016061503 -0.06502147
-0.0076721716 -0.10146079 0.10874398 -0.13865179 0.098881684 -0.17813236 0.14857508 -0.0043276385
0.14514506 0.010332828 0.09964235 0.048803937 0.10866573 -0.06449717 0.13094169 0.037778087
0.20659125 -0.10644401 -0.023679327 0.02548202 -0.11194415 0.10317124 -0.055173084 0.020777034
-0.04457792 -0.032083806 -0.026965275 0.101333834 -0.06893251 0.10706352 -0.022443458 0.10465091
-0.046799384 0.0900644 0.001544627 -0.053112086 0.016442686 -0.097845435 0.039386734 -0.055564452
-0.0495986 -0.08584667 0.019420506 0.11390328 -0.13436623 -0.11276508 0.072246 -0.05473167
0.0347734 -0.12865931 -0.08711532 -0.0551408 0.06180505 0.054864522 -0.099193685 -0.029562224
-0.03477967 -0.023827843 0.16049644 -0.17033444 -0.08128049 -0.03310497 0.045210063 0.025472894
0.035326306 -0.12037805 0.072605364 -0.0050162426 -0.13957264 -0.11021666 -0.05565497 -0.037405577
-0.11109791 0.0024483302 -0.16087233 0.06660821 0.06476385 0.06504457 -0.009337288 -0.15956433
0.08439593 -0.05863031 0.1739978 0.13549504 0.1040822 0.015203829 -0.17499335 -0.03651624
-0.08027602 -0.025272591 0.027543146 0.08505415 0.14341109 0.05221396 0.10922321 0.033749033
0.031721525 0.12843226 0.014821402 -0.01574646 -0.09076839 -0.100304365 0.16102988 -0.070929065
0.100707926 -0.06693537 0.033954486 -0.10818386 -0.0068283784 -0.03377639 0.09921329 0.11935169
0.02061315 -0.11442884 -0.030205727 -0.06329841 -0.13568561 0.0016120729 -0.0021130575 0.12026414
0.006375729 0.15525497 -0.020440916 -0.14937085 -0.0883551 -0.074001454 0.024906242 -0.085318804
0.115089245 0.06717847 -0.069162056 -0.06796431 -0.15570755 0.03910102 0.11094878 0.008145852
-0.11644078 -0.092200845 0.11418475 -0.09729033 0.067632124 0.009066943 0.10366125 -0.024557862
-0.17397459 0.005130665 -0.1013884 0.1913853 0.10813578 -0.07505439 -0.056723792 0.049596008
0.09829911 -0.16268346 -0.12187238 -0.018434912 -0.061645944 0.10252256 -0.043453984 0.030412074
0.0002625428 -0.008942477 0.062208053 0.13568011 0.17840491 0.10087516 -0.07056858 0.14729728
-0.09664239 0.036612194 0.1458007 0.115412936 0.082247905 -0.11053681 -0.043654364 0.052800015
0.10808401 -0.0056365686 0.038045444 -0.053868912 0.13569418 -0.10203183 0.09228122 -0.00024726056
-0.036504593 -0.071277164 -0.09624253 -0.06553317 -0.037897 0.12193281 -0.063339666 -0.12293072
-0.04568761 0.111392334 -0.06771654 0.023491386 -0.05310922 -0.07992102 -0.13898925 0.1059608
0.0049691335 0.029465023 0.1299001 -0.032637972 -0.026751095 0.013179804 0.13662708 -0.05748961
-0.09363475 -0.09562746 -0.14643471 0.018066563 -0.07225909 0.13558295 -0.059360113 -0.09097024
0.13334823 -0.12369531 -0.08160315 -0.110484615 0.053940993 -0.09192134 0.13502486 -0.057099134
0.014704042 -0.059249662 0.011982836 0.1548391 0.013716063 0.06988895 0.14270282 -0.097491674
0.13209026 -0.12036772 -0.11504557 0.0708464 0.046123162 0.118991345 0.099675775 0.14053883
-0.028354224 -0.12316871 -0.006696168 0.09408243 0.06146119 -0.016048007 -0.09810164 -0.013131499
00000000: ca7f cb3d 5399 ccbd b3e9 a6bc d8a3 663d
00000010: adce 4f3c 793f cfbc 6a93 83bc fa29 85bd
00000020: d766 fbbb adca cfbd 2ab5 de3d bcfa 0dbe
00000030: 7b82 ca3d 5468 36be 1124 183e ddce 8dbb
00000040: e8a0 143e 064b 293c 4a11 cc3d a3e6 473d
00000050: 238c de3d 1817 84bd 9415 063e 32bd 1a3d
00000060: a88c 533e 51ff d9bd 26fb c1bc abbf d03c
00000070: f942 e5bd 714b d33d 2cfd 61bd 9934 aa3c
00000080: 5697 36bd 4f6a 03bd 48e6 dcbc 1d88 cf3d
00000090: 7d2c 8dbd 1e44 db3d 58db b7bc 3753 d63d
000000a0: b6b0 3fbd af73 b83d 1575 ca3a 0f8c 59bd
000000b0: d0b2 863c 3063 c8bd fc53 213d 8d97 63bd
000000c0: e727 4bbd 61d0 afbd c117 9f3c 1f46 e93d
000000d0: 4d97 09be 61f1 e6bd b6f5 933d 512e 60bd
000000e0: 8d6e 0e3d 44bf 03be 8469 b2bd 52db 61bd
000000f0: 4b27 7d3d 9fb9 603d 0f26 cbbd 7a2c f2bc
00000100: 2175 0ebd 9c32 c3bc 2e59 243e 276c 2ebe
00000110: 6376 a6bd 1499 07bd 302e 393d 88ac d03c
00000120: 51b2 103d c488 f6bd 1fb2 943d 4b5f a4bb
00000130: 21ec 0ebe 46b9 e1bd 77f6 63bd 9736 19bd
00000140: 4d87 e3bd 2a74 203b b7bb 24be e369 883d
00000150: e9a2 843d 1636 853d 6dfb 18bc d564 23be
00000160: c6d7 ac3d 5626 70bd 7b2c 323e 36bf 0a3e
00000170: 0c29 d53d 7b19 793c 7531 33be 0e92 15bd
00000180: c167 a4bd 7708 cfbc 2aa2 e13c df30 ae3d
00000190: 5bda 123e 4ede 553d 6bb0 df3d 6d3c 0a3d
000001a0: 6eee 013d bf83 033e 77d5 723c b8fe 80bc
000001b0: c7e4 b9bd 606c cdbd 04e5 243e 4243 91bd
000001c0: f53f ce3d 6915 89bd dc13 0b3d 808f ddbd
000001d0: 97c0 dfbb 1d59 0abd 5630 cb3d a96e f43d
000001e0: e9dc a83c ab59 eabd 0072 f7bc 99a2 81bd
000001f0: 2bf1 0abe 314c d33a 397b 0abb 0c4d f63d
00000200: 7eeb d03b 29fb 1e3e b573 a7bc acf4 18be
00000210: 85f3 b4bd 138e 97bd 2d08 cc3c a0bb aebd
00000220: e9b3 eb3d de94 893d d6a4 8dbd df30 8bbd
00000230: cd71 1fbe 6428 203d 1d39 e33d 2e76 053c
00000240: 8178 eebd ccd3 bcbd b2d9 e93d 2740 c7bd
00000250: b682 8a3d 848d 143c 594c d43d 922d c9bc
00000260: 6526 32be 231f a83b b9a4 cfbd 82fa 433e
00000270: 4b76 dd3d 1eb6 99bd 3557 68bd 2f25 4b3d
00000280: 0b51 c93d 7e96 26be 3a98 f9bd d004 97bc
00000290: 7580 7cbd 59f7 d13d cefc 31bd be22 f93c
000002a0: e6a5 8939 7883 12bc dfcd 7e3d baef 0a3e
000002b0: c7af 363e a397 ce3d 4286 90bd 19d5 163e
000002c0: 72ec c5bd abf6 153d c74c 153e 9e5d ec3d
000002d0: 9771 a83d 1f61 e2bd ebce 32bd d444 583d
000002e0: 265b dd3d f7b2 b8bb 8ad5 1b3d a6a5 5cbd
000002f0: 6af3 0a3e 10f6 d0bd f0fd bc3d c0a2 81b9
00000300: d785 15bd c3f9 91bd ce1a c5bd 4136 86bd
00000310: e239 1bbd e9b7 f93d 3ab8 81bd 1ac3 fbbd
00000320: ee22 3bbd aa21 e43d f8ae 8abd 0271 c03c
00000330: 0e89 59bd a2ad a3bd 3353 0ebe fa01 d93d
00000340: 1dd4 a23b a260 f13c 8804 053e 65af 05bd
00000350: 1d25 dbbc 1bf0 573c f8e7 0b3e 3a7a 6bbd
00000360: 93c3 bfbd 54d8 c3bd fbf2 15be 5400 943c
00000370: 93fc 93bd 42d6 0a3e 9723 73bd 9b4e babd
00000380: 708c 083e f753 fdbd 8d1f a7bd c245 e2bd
00000390: 3bf1 5c3d 4141 bcbd f543 0a3e c8e0 69bd
000003a0: 39e9 703c c6af 72bd a853 443c 248e 1e3e
000003b0: 57b9 603c f021 8f3d b020 123e b7a9 c7bd
000003c0: ab42 073e 5a83 f6bd 039d ebbd eb17 913d
000003d0: a4eb 3c3d bcb1 f33d d022 cc3d 69e9 0f3e
000003e0: 1e47 e8bc e03f fcbd 876b dbbb 4aae c03d
000003f0: bbbe 7b3d 1c77 83bc 83e9 c8bd 8025 57bc

fc3.bias f4 [30]
0.06698555 0.0016079737 0.05808967 -0.032349534 0.030009693 -0.096866764 0.049367413 -0.040581472
-0.027563192 0.07678127 -0.03412205 -0.040764544 0.024033131 -0.0062220995 0.025362443 0.07894155
-0.010787691 -0.052654095 -0.0679058 -0.01359698 0.11477779 -0.059032027 -0.0039634192 -0.057942595
-0.059042476 -0.006907315 0.016420143 -0.07751913 -0.07480304 -0.0477097
00000000: b82f 893d a5c2 d23a 6fef 6d3d f280 04bd
00000010: e3d6 f53c 1562 c6bd 7c35 4a3d c238 26bd
00000020: 34cc e1bc 803f 9d3d 90c3 0bbd b9f8 26bd
00000030: 21e1 c43c c1e2 cbbb e6c4 cf3c 1bac a13d
00000040: dbbe 30bc d2ab 57bd 3212 8bbd dec5 5ebc
00000050: 9e10 eb3d 91cb 71bd 92df 81bb 3755 6dbd
00000060: 86d6 71bd c256 e2bb 8983 863c 5ac2 9ebd
00000070: 5632 99bd 3f6b 43bd

exp_avg f4 [128, 180]
1.5741094e-05 0.000329123 0.00022259963 0.00037970173 0.00011484889 -0.0004280648 0.00020246365 -0.00024500853
0.00015759566 7.9051315e-06 0.00034917332 0.00012840293 -0.00033702565 -0.00010143795 0.00021890251 0.0002630615
0.00047837454 -7.0710856e-05 0.00038479478 5.810689e-05 -1.5767608e-05 0.00028727137 -0.00036010437 -0.00019441593
0.0002226817 0.00011719787 -0.00022080487 -0.0002097429 9.821405e-05 -8.974579e-05 3.345107e-06 0.00041220992
0.00017817941 0.00036627532 0.00011274984 -0.0004011362 0.00012519659 -2.1122294e-05 0.0003084027 0.000106308835
0.00039162848 1.2444943e-06 -0.0003072886 -0.00021616604 0.0003510374 0.0004384095 0.00044555264 -6.931923e-06
0.0002952948 0.00020156679 -5.2964588e-05 0.00031879608 -0.00020512029 -0.00017362712 0.0002796551 -9.041102e-05
-0.0002517653 -5.1966454e-05 0.00013056195 -6.7427216e-05 1.5486949e-06 0.0004553124 0.00014381684 0.00043119042
0.00018555892 -0.00041375068 0.000106022315 9.557558e-05 0.00046382652 0.00024321317 0.00036693894 -5.7785302e-05
-0.00013513427 -0.00029773026 0.00023047585 0.00028344005 0.00027150227 -5.5863664e-05 0.00022936439 0.00019950578
-0.00011779072 0.00033312346 6.156309e-05 -0.00013114457 0.00036084795 -0.00017603037 -0.00033007783 -9.372967e-05
0.00032285094 2.711674e-05 -4.7447946e-05 0.0004428664 0.0001342531 0.00048230222 0.000215474 -0.00040800945
9.4563606e-05 6.616617e-05 0.0005127675 0.00028846468 0.00014914006 -7.2383365e-05 -9.4103125e-05 -0.0003248385
-0.00014324687 6.7327805e-05 4.574794e-05 2.7355665e-05 0.0001621078 -3.312448e-05 -0.00021812847 0.0003465345
0.00029184687 4.0549465e-05 0.00044353487 -9.423492e-05 -0.0003693246 -0.00013098413 0.0004652849 5.877779e-05
-0.00014115061 0.00047588328 3.0561925e-05 0.00044202892 0.00017933773 -0.00033290865 3.005089e-05 -8.8164576e-05
0.00044628908 0.00023908913 -0.00020308749 -2.447808e-05 3.8581788e-05 -0.00045022005 -0.00037264975 5.3619282e-05
-0.00017024657 2.4470064e-06 1.4204947e-05 -0.00026375995 -0.00031110825 0.00035009263 0.00046699247 0.00012885184
0.00036380213 -4.8519505e-05 -0.00034210525 9.7232594e-05 0.00038939263 0.0001152552 -0.00020413141 0.00046546437
5.5984274e-06 0.00039117158 4.6759596e-05 -0.0001540461 -6.298761e-05 -0.00026439314 0.00035240434 0.00015883274
-0.00028391066 9.087242e-05 0.0001913178 -0.0004276998 -0.00045685767 5.067974e-05 -0.0002806423 -0.00018865294
-0.00023940008 -0.00015262872 -0.00035349632 0.00031086564 0.0005237448 6.335115e-05 0.00031050658 3.9880193e-05
-0.00027933152 0.00022435217 0.00035564133 0.00017412542 5.1063587e-05 0.00012394559 0.00026967635 -0.00088142103
-0.000119603894 0.00057410373 2.0769061e-05 0.00027009347 0.00016149165 -1.2772427e-05 -0.00042345026 0.00064159837
-2.3990113e-05 0.00039353422 0.00030180966 -1.895171e-05 -0.0006463575 -0.0007822068 -0.000110018416 0.0002431924
-5.7495417e-05 5.6979592e-05 0.00025003238 -0.00013034501 0.000109890694 0.00022916704 0.00042917422 -4.403357e-05
0.00011303469 0.00021647953 -2.3467946e-05 0.00012810872 0.00018536643 -0.00082241197 -0.00040985984 0.0007216857
0.00015378767 0.00034320593 0.00029581477 -8.472078e-05 -0.0003626717 0.00055647595 7.993863e-05 0.0005144759
0.00019382169 -0.00039035673 -0.0001589271 -0.00041912848 -0.00040299335 0.00010184036 -4.745253e-05 0.00013059135
0.00017635692 -9.581643e-05 -5.2128365e-05 0.0003068163 0.0004991374 -0.00034656285 1.9638464e-05 0.0005191073
-7.2213974e-05 4.704187e-05 0.0002708075 -0.00057714625 -0.00036826858 0.0007045199 -2.508879e-05 0.00050934724
8.0424776e-05 -5.2591815e-05 -0.0002588154 7.6949036e-05 0.00033712463 0.0002843242 6.623697e-06 -0.00045536133
00000000: be0b 8437 248e ac39 a269 6939 b412 c739
00000010: 07db f038 e36d e0b9 6c4c 5439 7d74 80b9
00000020: 4340 2539 48a0 0437 4011 b739 e6a3 0639
00000030: d1b2 b0b9 16bb d4b8 3289 6539 84eb 8939
00000040: 58ce fa39 9a4a 94b8 48be c939 ccb7 7338
00000050: ae44 84b7 e99c 9639 64cc bcb9 21dc 4bb9
00000060: aa7f 6939 21c8 f538 db87 67b9 6eee 5bb9
00000070: 44f8 cd38 e735 bcb8 807c 6036 e11d d839
00000080: acd5 3a39 a408 c039 1c74 ec38 974f d2b9
00000090: 3447 0339 c82f b1b7 1cb1 a139 1ff2 de38
000000a0: 7c53 cd39 8008 a735 941b a1b9 a1aa 62b9
000000b0: 710b b839 54da e539 1099 e939 c498 e8b6
000000c0: ccd1 9a39 ac5b 5339 4b26 5eb8 1624 a739
000000d0: 8f15 57b9 ad0f 36b9 ac9e 9239 0c9b bdb8
000000e0: 5eff 83b9 8ef6 59b8 75e7 0839 b667 8db8
000000f0: c0dc cf35 ffb6 ee39 8acd 1639 6611 e239
00000100: 9892 4239 adec d8b9 4c58 de38 c06f c838
00000110: be2d f339 0a07 7f39 b661 c039 7f5e 72b8
00000120: d4b2 0db9 ae18 9cb9 e4ab 7139 ae9a 9439
00000130: 6b58 8e39 274f 6ab8 8981 7039 6d32 5139
00000140: 6906 f7b8 13a7 ae39 6f1b 8138 da83 09b9
00000150: 3130 bd39 cb94 38b9 4c0e adb9 bc90 c4b8
00000160: 5244 a939 c178 e337 d802 47b8 8630 e839
00000170: 4bc6 0c39 82dd fc39 ddf0 6139 1aea d5b9
00000180: 7350 c638 b1c2 8a38 3f6b 063a 133d 9739
00000190: 7b62 1c39 86cc 97b8 3b59 c5b8 164f aab9
000001a0: 8a34 16b9 5732 8d38 7ae1 3f38 d879 e537
000001b0: 7bfb 2939 24ef 0ab8 6ab9 64b9 13af b539
000001c0: 0603 9939 a813 2a38 3e8a e839 fd9f c5b8
000001d0: e9a1 c1b9 c958 09b9 7bf1 f339 2c88 7638
000001e0: d401 14b9 f97f f939 9e2f 0038 1ec0 e739
000001f0: 9b0c 3c39 3e8a aeb9 cb15 fc37 ffe4 b8b8
00000200: e8fb e939 00b4 7a39 e2f3 54b9 4756 cdb7
00000210: e1d2 2138 830b ecb9 3460 c3b9 44e5 6038
00000220: 3784 32b9 4037 2436 c851 6e37 4349 8ab9
00000230: 3e1c a3b9 a38c b739 abd6 f439 671c 0739
00000240: b2bc be39 6c81 4bb8 975c b3b9 5ae9 cb38
00000250: 6527 cc39 2ab5 f138 1c0c 56b9 9209 f439
00000260: 20da bb36 2916 cd39 bc1f 4438 6f87 21b9
00000270: 3718 84b8 3f9e 8ab9 e9c2 b839 578c 2639
00000280: d8d9 94b9 c292 be38 7b9c 4839 e53c e0b9
00000290: 6686 efb9 f590 5438 2c23 93b9 23d1 45b9
000002a0: 7807 7bb9 f60a 20b9 7955 b9b9 aefb a239
000002b0: eb4b 093a 64db 8438 7dcb a239 0845 2738
000002c0: 3e73 92b9 1440 6b39 5f75 ba39 7095 3639
000002d0: 1c2d 5638 64f7 0139 5963 8d39 2a0f 67ba
000002e0: dad3 fab8 737f 163a 3839 ae37 559b 8d39
000002f0: 1656 2939 2849 56b7 8802 deb9 f030 283a
00000300: 603e c9b7 4553 ce39 353c 9e39 7dfa 9eb7
00000310: 5170 29ba 020d 4dba b0b9 e6b8 7601 7f39
00000320: 3c27 71b8 5ffd 6e38 c716 8339 39ad 08b9
00000330: 1e75 e638 8f4c 7039 ca02 e139 b0b0 38b8
00000340: 090d ed38 c8fe 6239 08dd c4b7 ec54 0639
00000350: ec5e 4239 2297 57ba 75e2 d6b9 822f 3d3a
00000360: 1042 2139 52f0 b339 9617 9b39 1fac b1b8
00000370: f924 beb9 78e0 113a baa4 a738 e5dd 063a
00000380: 9d3c 4b39 cba8 ccb9 aba5 26b9 79be dbb9
00000390: da48 d3b9 2093 d538 c407 47b8 59ef 0839
000003a0: 73ec 3839 0ef1 c8b8 68a4 5ab8 30dc a039
000003b0: 8bd8 023a e1b2 b5b9 48bd a437 b414 083a
000003c0: 9571 97b8 d34e 4538 2bfb 8d39 a14b 17ba
000003d0: 2c14 c1b9 88af 383a c475 d2b7 b785 053a
000003e0: b9a9 a838 0896 5cb8 9db1 87b9 b35f a138
000003f0: 1ac0 b039 5911 9539 2041 de36 90bd eeb9

exp_avg_sq f4 [128, 180]
8.831806e-07 8.1626166e-07 8.3715486e-07 8.572516e-07 8.3089697e-07 8.108163e-07 8.139709e-07 8.263336e-07
8.2946616e-07 8.3474976e-07 8.106734e-07 8.162735e-07 8.064402e-07 8.338875e-07 8.6553115e-07 8.0080366e-07
8.4463295e-07 8.960032e-07 8.366481e-07 8.375354e-07 8.7847394e-07 8.757636e-07 8.30191e-07 8.4845783e-07
8.2910555e-07 8.301489e-07 8.3095506e-07 8.3205987e-07 8.483218e-07 8.077765e-07 8.841085e-07 8.4417127e-07
8.3633705e-07 8.453225e-07 8.2575605e-07 8.46771e-07 8.3274995e-07 8.010393e-07 8.5264736e-07 8.1502634e-07
8.310818e-07 8.1215745e-07 8.3738087e-07 8.377596e-07 7.943317e-07 8.080318e-07 8.4750377e-07 8.683964e-07
8.5082826e-07 8.392017e-07 8.8611984e-07 8.8164114e-07 8.2412674e-07 8.290862e-07 8.081807e-07 8.4324387e-07
8.3006125e-07 8.181955e-07 8.318352e-07 8.005208e-07 8.9067544e-07 8.706803e-07 8.3413556e-07 8.5251287e-07
8.1767155e-07 8.6873627e-07 8.040504e-07 8.1168145e-07 8.497848e-07 8.236565e-07 8.263035e-07 8.2857946e-07
8.170534e-07 8.606017e-07 7.7736115e-07 8.1066264e-07 7.917676e-07 8.4278963e-07 8.6243455e-07 8.3463146e-07
8.868763e-07 8.7930175e-07 8.0898553e-07 8.0546596e-07 7.9417316e-07 8.386603e-07 8.3619824e-07 8.24397e-07
8.083424e-07 8.167122e-07 8.947844e-07 8.743137e-07 8.3771727e-07 8.315376e-07 7.914581e-07 8.5264895e-07
7.99558e-07 8.0237857e-07 8.3500555e-07 8.3308726e-07 8.167079e-07 8.792523e-07 7.6879803e-07 8.635105e-07
7.802149e-07 8.341808e-07 7.935655e-07 8.3259954e-07 8.7830296e-07 8.380045e-07 8.829068e-07 8.75298e-07
7.9385944e-07 7.8551665e-07 7.982452e-07 8.221594e-07 8.358975e-07 8.470015e-07 7.7979104e-07 8.30658e-07
8.9449264e-07 8.749279e-07 8.529281e-07 8.125446e-07 7.798295e-07 8.3145517e-07 8.1678144e-07 8.294412e-07
8.523237e-07 8.561525e-07 7.9778835e-07 8.679465e-07 7.840418e-07 8.289084e-07 7.9563586e-07 8.342497e-07
8.151875e-07 8.3720056e-07 8.681398e-07 8.0881347e-07 8.8080975e-07 8.7879994e-07 7.782894e-07 8.0069304e-07
7.986004e-07 8.2266956e-07 8.3236006e-07 8.440337e-07 7.52596e-07 8.556637e-07 8.9037957e-07 8.8379977e-07
8.679482e-07 8.018342e-07 7.860019e-07 8.3652066e-07 8.1509677e-07 8.4383043e-07 8.816203e-07 8.722154e-07
7.9530093e-07 7.989377e-07 8.3726627e-07 7.536907e-07 7.9862366e-07 7.8478695e-07 8.160661e-07 8.277786e-07
8.5082183e-07 7.8808205e-07 8.749603e-07 8.8969904e-07 7.7760285e-07 8.454685e-07 8.0044845e-07 8.342907e-07
8.4028494e-07 8.174341e-07 7.177691e-07 8.680421e-07 2.5862514e-06 2.8727557e-06 2.5986642e-06 2.5944553e-06
2.698128e-06 2.6616744e-06 2.4223523e-06 2.57834e-06 2.6387097e-06 2.5981687e-06 2.7031926e-06 2.691869e-06
2.6019802e-06 2.5736567e-06 2.6781906e-06 2.61832e-06 2.6325854e-06 2.6797338e-06 2.8016996e-06 2.4754117e-06
2.6400492e-06 2.890426e-06 2.7179449e-06 2.4404687e-06 2.7426395e-06 2.6861762e-06 2.5759962e-06 2.6576e-06
2.6030834e-06 2.502278e-06 2.601401e-06 2.8789477e-06 2.6671682e-06 2.5771465e-06 2.7002532e-06 2.7077413e-06
2.4759843e-06 2.5725728e-06 2.5497538e-06 2.5755269e-06 2.6666885e-06 2.65017e-06 2.6027676e-06 2.5425995e-06
2.5460513e-06 2.6564112e-06 2.7153174e-06 2.7085346e-06 2.7331687e-06 2.5559e-06 2.6632201e-06 2.861015e-06
2.7078358e-06 2.5230665e-06 2.7590895e-06 2.6857458e-06 2.588805e-06 2.7709514e-06 2.6444968e-06 2.4840851e-06
2.6146827e-06 2.8796771e-06 2.7104622e-06 2.5133377e-06 2.7072472e-06 2.716526e-06 2.4868414e-06 2.6004464e-06
2.4987687e-06 2.5709987e-06 2.635354e-06 2.6112637e-06 2.6507842e-06 2.580554e-06 2.6061596e-06 2.6448404e-06
00000000: b513 6d35 131d 5b35 d8b8 6035 e21d 6635
00000010: ce0a 5f35 dfa6 5935 a87f 5a35 36d1 5d35
00000020: 7ba8 5e35 9113 6035 0d9d 5935 e31d 5b35
00000030: 267a 5835 50d8 5f35 d956 6835 cff6 5635
00000040: bcba 6235 df84 7035 0596 6035 ffd2 6035
00000050: 45d0 6b35 0416 6b35 4bda 5e35 94c1 6335
00000060: b38f 5e35 66d7 5e35 cc0e 5f35 b85a 5f35
00000070: 3bb8 6335 fad5 5835 7953 6d35 029b 6235
00000080: a580 6035 1fea 6235 86a9 5d35 a94d 6335
00000090: 248a 5f35 0007 5735 7be1 6435 2fc8 5a35
000000a0: 8217 5f35 0903 5a35 60c8 6035 67e2 6035
000000b0: 0f3a 5535 86e7 5835 0480 6335 bf1b 6935
000000c0: 7964 6435 8045 6135 b1dd 6d35 eba9 6c35
000000d0: 8f39 5d35 5f8e 5e35 c1f1 5835 475b 6235
000000e0: 60d1 5e35 f7a1 5b35 484b 5f35 5fe3 5635
000000f0: c016 6f35 b2b8 6935 5ce9 5f35 3dd8 6435
00000100: f67d 5b35 1a33 6935 ecd5 5735 53e2 5935
00000110: c41c 6435 3e19 5d35 25cf 5d35 8c6b 5e35
00000120: 7b53 5b35 1904 6735 daab 5035 509c 5935
00000130: db89 5435 103c 6235 0d82 6735 700b 6035
00000140: ad11 6e35 2809 6c35 1029 5935 3337 5835
00000150: 2a2f 5535 4c20 6135 1b77 6035 214c 5d35
00000160: defc 5835 093c 5b35 1e31 7035 61b2 6a35
00000170: 7edf 6035 d436 5f35 9674 5435 97e1 6435
00000180: 35a1 5635 0963 5735 2525 6035 52a1 5f35
00000190: bd3b 5b35 c205 6c35 665f 4e35 fdcb 6735
000001a0: f66f 5135 78ec 5f35 6805 5535 ce7f 5f35
000001b0: 85c4 6b35 3bf3 6035 e500 6d35 05f6 6a35
000001c0: 9b19 5535 4bdc 5235 fe46 5635 5db2 5c35
000001d0: 7062 6035 805d 6335 d552 5135 62fa 5e35
000001e0: 111d 7035 96dc 6a35 c6f4 6435 a41d 5a35
000001f0: 7a55 5135 2a31 5f35 cb40 5b35 c4a6 5e35
00000200: 3dcb 6435 5ad2 6535 9927 5635 d4fc 6835
00000210: f176 5235 2782 5e35 ae93 5535 34f1 5f35
00000220: 42d3 5a35 fcbb 6035 1d0a 6935 3d1d 5935
00000230: c970 6c35 ace6 6b35 a4eb 5035 35ef 5635
00000240: 675f 5635 6cd5 5c35 596f 5f35 8e91 6235
00000250: 0106 4a35 c3b0 6535 6b02 6f35 423e 6d35
00000260: f2fc 6835 a03d 5735 a4fd 5235 438d 6035
00000270: 06cd 5a35 9683 6235 7ca8 6c35 3022 6a35
00000280: aa7c 5535 9576 5635 80c0 6035 3b51 4a35
00000290: 0061 5635 26aa 5235 a30f 5b35 8334 5e35
000002a0: 0864 6435 968c 5335 d0de 6a35 a7d3 6e35
000002b0: 76bc 5035 27f4 6235 66de 5635 05f4 5f35
000002c0: f18f 6135 a56d 5b35 b8ac 4035 6603 6935
000002d0: 768f 2d36 91c9 4036 b664 2e36 671c 2e36
000002e0: 7c11 3536 389f 3236 b28f 2236 8b07 2d36
000002f0: b014 3136 335c 2e36 7f68 3536 f5a5 3436
00000300: ae9d 2e36 16b7 2c36 f7ba 3336 65b6 2f36
00000310: 79ab 3036 7ad5 3336 d504 3c36 401f 2636
00000320: b32b 3136 24f9 4136 f065 3636 efc6 2336
00000330: 300e 3836 2844 3436 47df 2c36 3859 3236
00000340: a2b0 2e36 cfec 2736 bb93 2e36 f233 4136
00000350: 9afd 3236 0af3 2c36 ff35 3536 a4b6 3536
00000360: 1629 2636 77a4 2c36 701c 2b36 37d7 2c36
00000370: 5cf5 3236 93d9 3136 35ab 2e36 87a1 2a36
00000380: d4dc 2a36 cc44 3236 cc38 3636 45c4 3536
00000390: 7b6b 3736 0786 2b36 c6b9 3236 ddff 3f36
000003a0: 44b8 3536 f451 2936 cc28 3936 c33c 3436
000003b0: 55bb 2d36 95f4 3936 1c78 3136 42b4 2636
000003c0: e877 2f36 7a40 4136 63e5 3536 d0aa 2836
000003d0: 27ae 3536 904d 3636 9ce3 2636 5483 2e36
000003e0: 85b0 2736 6c89 2c36 09db 3036 2b3d 2f36
000003f0: 20e4 3136 952d 2d36 7be5 2e36 037e 3136

exp_avg f4 [128]
0.00038197177 0.0003276792 -0.0009606499 -0.00017628106 0.00020224036 0.00035704585 0.0004767619 -0.00037011
-5.7664925e-05 -0.00015389432 -7.827279e-05 -0.00022571353 0.00047608782 -0.00010500997 -5.8510315e-05 -0.000103268496
0.00012450673 1.2414835e-05 -0.00045203915 0.00040687845 0.00014150246 0.00040316395 0.0008083602 0.00045862922
-0.00041127866 -0.00017986463 -0.00067081035 3.7657443e-05 -0.0006182915 -0.00023992098 -0.00040330002 -0.0007247006
0.0006836564 -0.00034494392 0.00036077292 -0.0005747269 2.5958434e-06 -3.625311e-05 -0.0006570062 -0.00042528327
0.00016845432 -0.00038714765 -1.1179945e-06 -8.5263084e-05 0.00021159486 -0.0005335035 -0.00033811206 -0.00020828901
0.00049791107 -0.0011507514 -0.00013779712 -0.00011981372 -0.0003031028 0.0004092765 -0.0008979651 0.0003026389
-0.00024224375 1.9159343e-06 -4.291493e-05 6.698993e-05 -0.00017197736 -0.00077997474 -9.370867e-05 2.9278082e-05
0.00012535599 0.00046897033 -0.00065545953 -0.00033950666 0.00036077466 -0.0008050623 -0.00037906866 -0.000539291
-0.00032430372 9.30332e-05 -3.8813552e-05 -7.779553e-05 0.00047896057 -0.00055823894 0.0001230587 -0.00017231092
0.00025776462 -0.00035697088 0.0011056754 0.00026681327 0.0004929488 -0.0002759275 -0.00017838292 0.00022130687
0.00043290935 0.0003344616 -0.0001683269 0.0001658089 -0.00012382938 0.00031861517 -0.00013038806 6.583881e-05
-0.0001634823 0.0003201819 -0.0002890312 -0.00035840736 -0.0002975486 -0.0013215278 -5.850685e-05 -0.0004484294
3.790603e-05 0.00012374949 0.00025110046 -0.0006976385 -0.00050259783 0.0002557717 0.00021883252 -0.0002344994
-0.0001963221 -0.0006322137 -0.00025710193 0.00026413344 -2.3755078e-05 -2.0483054e-05 0.00062126986 0.00085497147
0.00014173787 -0.0004758524 -5.133854e-05 0.00033504708 -0.0005932181 0.00035363852 0.00032284987 -0.0001734538
00000000: 6243 c839 5ccc ab39 20d4 7bba 16d8 38b9
00000010: 7c10 5439 e231 bb39 e6f5 f939 530b c2b9
00000020: 3edd 71b8 b15e 21b9 6226 a4b8 84ad 6cb9
00000030: 6d9b f939 cc38 dcb8 f968 75b8 da91 d8b8
00000040: 058e 0239 4f49 5037 abff ecb9 4d52 d539
00000050: 4760 1439 c05f d339 22e8 533a 2c74 f039
00000060: e3a0 d7b9 0b9a 3cb9 52d9 2fba 5ff2 1d38
00000070: d714 22ba 4c93 7bb9 0372 d3b9 d6f9 3dba
00000080: 6837 333a 97d9 b4b9 1f26 bd39 45a9 16ba
00000090: 4034 2e36 7b0e 18b8 f13a 2cba 8ef8 deb9
000000a0: 1da3 3039 14fa cab9 000e 96b5 45cf b2b8
000000b0: 90df 5d39 d0da 0bba a244 b1b9 2868 5ab9
000000c0: 3f86 023a cfd4 96ba a27d 10b9 8044 fbb8
000000d0: c5e9 9eb9 2994 d639 6b65 6bba 81ab 9e39
000000e0: d002 7eb9 8093 0036 8eff 33b8 f27c 8c38
000000f0: d254 34b9 3877 4cba 7685 c4b8 349a f537
00000100: fe71 0339 22e0 f539 25d3 2bba d0ff b1b9
00000110: 5b26 bd39 d10a 53ba bcbd c6b9 355f 0dba
00000120: 4f07 aab9 d21a c338 bccb 22b8 2826 a3b8
00000130: 001d fb39 c856 12ba 5109 0139 5cae 34b9
00000140: 9524 8739 d227 bbb9 4fec 903a 12e3 8b39
00000150: 3c39 013a 5daa 90b9 4d0c 3bb9 9c0e 6839
00000160: 1cf8 e239 ad5a af39 e880 30b9 fddc 2d39
00000170: 32d8 01b9 ce0b a739 c7b8 08b9 f112 8a38
00000180: 726c 2bb9 16de a739 1c89 97b9 9fe8 bbb9
00000190: 4c00 9cb9 1d37 adba 4065 75b8 2d1b ebb9
000001a0: 4afd 1e38 c0c2 0139 22a6 8339 bae1 36ba
000001b0: c5c0 03ba 1919 8639 6876 6539 f4e3 75b9
000001c0: d0db 4db9 25bb 25ba a3cb 86b9 647b 8a39
000001d0: a445 c7b7 06d3 abb7 b7dc 223a 2a20 603a
000001e0: 789f 1439 d47b f9b9 5654 57b8 42a9 af39
000001f0: 3182 1bba 8f68 b939 2d44 a939 26e1 35b9

exp_avg_sq f4 [128]
9.200229e-07 2.9850783e-06 4.954412e-06 2.865419e-06 8.422488e-07 2.4906365e-06 1.3621551e-06 2.7867106e-06
1.1434114e-06 2.3696568e-06 2.8110328e-06 8.641436e-07 7.699373e-07 1.6878101e-06 1.4169335e-06 1.2935442e-06
7.282049e-07 8.7096015e-07 2.691386e-06 9.2487625e-07 1.9066547e-06 9.133453e-07 3.9835054e-06 1.454795e-06
9.36563e-07 1.3109213e-06 1.8788883e-06 1.3389518e-06 1.1847293e-06 1.5405805e-06 2.1565595e-06 3.3597212e-06
1.5430223e-06 1.0269441e-06 3.3546391e-06 3.2183466e-06 3.707067e-06 6.8126826e-07 3.0505364e-06 1.141783e-06
7.345701e-07 2.3414875e-06 3.2346998e-06 9.408898e-07 1.3863059e-06 2.5513843e-06 1.0637675e-06 1.2280641e-06
1.981208e-06 2.0544467e-06 1.0229297e-06 2.024862e-06 7.0381884e-07 5.094889e-06 1.9060361e-06 1.6512236e-06
1.5082683e-06 2.0511245e-06 8.9869815e-07 6.8563196e-07 1.2844511e-06 2.824915e-06 1.6950188e-06 1.7914282e-06
4.1450467e-06 3.580608e-06 3.1753962e-06 2.6108055e-06 3.9054844e-06 3.8215767e-06 3.1848047e-06 1.7388729e-06
1.8568164e-06 1.6484149e-06 1.1876953e-06 2.0457971e-06 7.000416e-07 1.4808452e-06 1.7266249e-06 6.50546e-07
7.6947873e-07 6.248219e-06 4.477296e-06 1.5557312e-06 1.135388e-06 8.8713057e-07 1.1545939e-06 1.7019553e-06
3.5367814e-06 1.4832698e-06 2.399337e-06 8.829854e-07 8.4815605e-07 8.6123674e-07 3.6400604e-06 5.737276e-07
1.4641561e-06 3.214661e-06 1.7213355e-06 5.055161e-06 1.1184184e-06 3.0246947e-06 1.4893706e-06 1.6565216e-06
4.44876e-07 2.4103929e-06 3.3498993e-06 2.333727e-06 2.9962548e-06 1.6609955e-06 2.1113192e-06 2.8092359e-06
1.1766989e-06 1.6913062e-06 6.6096396e-07 4.997201e-07 2.3578002e-06 2.4650583e-06 2.3780342e-06 2.8597474e-06
1.4881376e-06 3.6974159e-06 7.6219794e-07 1.2377549e-06 2.8118818e-06 5.520543e-07 1.6098165e-06 3.331774e-06
00000000: 7ef7 7635 4153 4836 133e a636 864b 4036
00000010: e616 6235 cf24 2736 4bd3 b635 5303 3b36
00000020: 5177 9935 6506 1f36 2da5 3c36 7ff7 6735
00000030: b0ad 4e35 b788 e235 772d be35 d79d ad35
00000040: dc79 4335 edcb 6935 a99d 3436 0345 7835
00000050: 28e8 ff35 9c2c 7535 0daa 8536 6042 c335
00000060: 1f68 7b35 eaf2 af35 1c2e fc35 09b6 b335
00000070: fd02 9f35 f1c5 ce35 69b9 1036 9277 6136
00000080: d819 cf35 88d5 8935 4320 6136 c6fa 5736
00000090: edc6 7836 66e0 3635 d1b7 4c36 5d3f 9935
000000a0: 462f 4535 7322 1d36 b813 5936 7491 7c35
000000b0: 1c11 ba35 7338 2b36 c6c6 8e35 f6d3 a435
000000c0: e5f4 0436 20df 0936 994b 8935 dde2 0736
000000d0: 10ee 3c35 c3f4 aa36 e7d2 ff35 9c9f dd35
000000e0: b46f ca35 0da6 0936 113e 7135 450c 3835
000000f0: 6765 ac35 ac93 3d36 6780 e335 0171 f035
00000100: ae15 8b36 614a 7036 e418 5536 4c35 2f36
00000110: db0b 8336 183b 8036 87ba 5536 3863 e935
00000120: ba37 f935 1b3f dd35 e668 9f35 874a 0936
00000130: 7eea 3b35 74c1 c635 61be e735 2ea1 2e35
00000140: 2d8e 4e35 cba7 d136 ae3b 9636 84ce d035
00000150: a263 9835 2623 6e35 8bf7 9a35 bd6e e435
00000160: 7159 6d36 c314 c735 4c04 2136 4b06 6d35
00000170: d7ac 6335 bd2f 6735 c347 7436 4302 1a35
00000180: 0584 c435 75bb 5736 a308 e735 819f a936
00000190: 901c 9635 dcfb 4a36 62e6 c735 a655 de35
000001a0: 4bd7 ee34 3cc2 2136 d5ce 6036 209d 1c36
000001b0: 4413 4936 5fef de35 30b0 0d36 4e86 3c36
000001c0: 11ef 9d35 d700 e335 196d 3135 8124 0635
000001d0: b33a 1e36 616d 2536 5196 1f36 16ea 3f36
000001e0: 05bc c735 1f21 7836 d899 4c35 ef20 a635
000001f0: c3b3 3c36 e230 1435 e010 d835 7197 5f36
